…
    "        dataloader_target_train_d[sample_id] = torch.utils.data.DataLoader(\n",
    "            target_train_set_d[sample_id],\n",
    "            batch_size=BATCH_SIZE,\n",
    "            shuffle=True,\n",
    "            num_workers=NUM_WORKERS,\n",
    "            pin_memory=True,\n",
    "        )\n"
   ]
  },
  {
   "cell_type": "markdown",
   "metadata": {},
   "source": [
    " ## Define Model"
   ]
  },
  {
   "cell_type": "code",
   "execution_count": 10,
   "metadata": {},
   "outputs": [
    {
     "data": {
      "text/plain": [
       "ADDAST(\n",
       "  (source_encoder): MLPEncoder(\n",
       "    (encoder): Sequential(\n",
       "      (0): Linear(in_features=367, out_features=1024, bias=True)\n",
       "      (1): BatchNorm1d(1024, eps=0.001, momentum=0.99, affine=True, track_running_stats=True)\n",
       "      (2): ELU(alpha=1.0)\n",
       "      (3): Linear(in_features=1024, out_features=64, bias=True)\n",
       "      (4): BatchNorm1d(64, eps=0.001, momentum=0.99, affine=True, track_running_stats=True)\n",
       "      (5): ELU(alpha=1.0)\n",
       "    )\n",
       "  )\n",
       "  (target_encoder): MLPEncoder(\n",
       "    (encoder): Sequential(\n",
       "      (0): Linear(in_features=367, out_features=1024, bias=True)\n",
       "      (1): BatchNorm1d(1024, eps=0.001, momentum=0.99, affine=True, track_running_stats=True)\n",
       "      (2): ELU(alpha=1.0)\n",
       "      (3): Linear(in_features=1024, out_features=64, bias=True)\n",
       "      (4): BatchNorm1d(64, eps=0.001, momentum=0.99, affine=True, track_running_stats=True)\n",
       "      (5): ELU(alpha=1.0)\n",
       "    )\n",
       "  )\n",
       "  (clf): Predictor(\n",
       "    (head): Sequential(\n",
       "      (0): Linear(in_features=64, out_features=33, bias=True)\n",
       "      (1): LogSoftmax(dim=1)\n",
       "    )\n",
       "  )\n",
       "  (dis): Discriminator(\n",
       "    (head): Sequential(\n",
       "      (0): Linear(in_features=64, out_features=32, bias=True)\n",
       "      (1): BatchNorm1d(32, eps=0.001, momentum=0.99, affine=True, track_running_stats=True)\n",
       "      (2): ELU(alpha=1.0)\n",
       "      (3): Dropout(p=0.5, inplace=False)\n",
       "      (4): Linear(in_features=32, out_features=2, bias=True)\n",
       "    )\n",
       "  )\n",
       ")"
      ]
     },
     "execution_count": 10,
     "metadata": {},
     "output_type": "execute_result"
    }
   ],
   "source": [
    "model = ADDAST(sc_mix_train_s.shape[1], emb_dim=64, ncls_source=lab_mix_train.shape[1])\n",
    "model.to(device)\n"
   ]
  },
  {
   "cell_type": "markdown",
   "metadata": {},
…
